…
])\n","  return Encoder,Decoder, model\n","\n","Encoder,Decoder, model = autoencoder_deep2(300)\n","print(model.summary())"],"execution_count":null,"outputs":[{"output_type":"stream","text":["Model: \"functional_47\"\n","_________________________________________________________________\n","Layer (type)                 Output Shape              Param #   \n","=================================================================\n","input_16 (InputLayer)        [(None, 32, 32, 3)]       0         \n","_________________________________________________________________\n","conv2d_31 (Conv2D)           (None, 16, 16, 3)         39        \n","_________________________________________________________________\n","conv2d_32 (Conv2D)           (None, 16, 16, 8)         224       \n","_________________________________________________________________\n","conv2d_33 (Conv2D)           (None, 16, 16, 8)         584       \n","_________________________________________________________________\n","flatten_8 (Flatten)          (None, 2048)              0         \n","_________________________________________________________________\n","dense_21 (Dense)             (None, 1024)              2098176   \n","_________________________________________________________________\n","dense_22 (Dense)             (None, 512)               524800    \n","_________________________________________________________________\n","functional_45 (Functional)   (None, 32, 32, 3)         1054567   \n","=================================================================\n","Total params: 3,678,390\n","Trainable params: 3,678,384\n","Non-trainable params: 6\n","_________________________________________________________________\n","None\n"],"name":"stdout"}]},{"cell_type":"code","metadata":{"id":"i3KU1uSMoYpu"},"source":["# Loss Function for Reconstruction of images (i.e. overall Autoencoder)\
…
